coil100-ae (2).pth (torch, 7784 bytes, 3 tensors)

encoder.0.1.weight f4 [3, 1, 15, 15]
0.0257097 0.013180733 -0.044004094 -0.0058436617 -0.06391772 -0.012589645 -0.011392488 -0.05825514
-0.042117592 0.004881712 -0.04198364 -0.061871022 -0.009500012 0.0530779 -0.059930217 -0.039816063
-0.032060143 -0.005463455 0.022308296 -0.0047907857 0.04108782 -0.07591087 0.024576953 0.039066557
0.027241182 -0.07504043 0.0091227945 -0.03651422 -0.026845463 -0.046360407 0.036810063 -0.015822161
0.015166152 -0.017655972 -0.044856343 -0.05845855 0.0011290135 -0.0416969 -0.04458959 -0.028444933
-0.016728984 -0.053602785 0.036482207 -0.07668226 0.03734207 -0.034489576 -0.0006007448 -0.016686393
-0.07526604 -0.013477906 -0.020014457 0.049581546 0.03948959 -0.04856802 -0.061215196 -0.028259758
0.05499494 -0.05097345 -0.06817312 -0.02369128 0.026966346 -0.0037152867 -0.049723264 -0.06585274
0.006378884 0.023935234 0.00030712382 0.04883853 0.019961342 -0.041750185 0.051776595 0.025937788
0.009122793 -0.025432972 -0.05373332 0.015633382 -0.051291957 -0.040478878 0.035576332 -0.013597162
-0.03726198 -0.06143623 0.037194714 0.024851952 0.054962266 0.009439501 0.022942178 -0.047066208
0.00639357 0.024855724 -0.002772531 0.018151766 -0.044725552 -0.035963736 0.016880548 -0.0058989995
-0.0030639968 0.043948956 0.06054772 0.06541657 0.061839115 -0.029920373 -0.04480769 -0.030800983
0.03307733 -0.009198442 -0.040235147 -0.0014099097 -0.029385023 0.018030068 0.034705985 -0.037433285
0.024697362 -0.061832342 -0.0054910025 -0.023774728 -0.003873277 0.061861273 0.040597454 0.02363346
-0.031264015 -0.008478405 -0.07159461 0.05711965 -0.0073571284 -0.07499688 -0.050154496 -0.010402696
0.056044295 0.03530547 -0.012168742 0.044640362 -0.013063155 -0.022051137 0.016940907 -0.03858377
0.042571187 0.029174715 -0.06371053 0.033061516 -0.018575918 -0.035889998 0.021329286 -0.03031746
0.06496214 0.045514293 -0.047168657 -0.07263827 -0.04320683 -0.053843677 0.030992538 -0.052069426
-0.044611346 0.012742624 -0.008778447 -0.005332781 0.006877167 0.026753483 0.021423142 -0.05537709
-0.055070985 0.00883874 -0.06893168 -0.068529405 -0.07470604 -0.073239684 -0.06620277 0.003657693
-0.052369203 -0.06923369 0.04885551 0.023126531 0.031659987 0.037164826 0.03784826 -0.026186883
-0.010898034 -0.02949403 -0.07042552 0.012280059 0.035171717 0.039602093 -0.07430934 0.036880415
0.004024648 0.031950932 0.02479251 -0.047303323 0.029414605 0.015224321 0.02528201 -0.060462818
-0.04149394 -0.019553581 0.029499566 -0.07050315 -0.0121838935 -0.042645134 0.03430859 -0.048272725
-0.04569082 -0.061265234 -0.029448131 -0.009853546 0.031513732 -0.060833167 0.044778682 0.0068139015
0.02198698 0.039444894 0.00016530501 -0.011641165 -0.044493128 -0.056540087 -0.043840084 0.042765014
-0.012725195 -0.035050213 -0.07509455 -0.071304746 -0.05741887 0.052781258 -0.02645792 -0.062701344
0.016910337 -0.06068059 0.06272252 0.030208414 0.000406456 -0.039838318 -0.065152586 -0.028554505
-0.006443318 -0.008131727 -0.06277326 -0.008659618 -0.017871317 -0.050764475 -0.044931065 -0.0068691736
-0.05167815 -0.0052898806 0.06350253 0.021799129 0.024041234 0.000316906 -0.06384795 0.011017736
-0.02437164 -0.024984233 0.007175891 0.015891323 -0.030521149 0.022188459 -0.044240087 0.028042056
00000000: 269d d23c 00f4 573c a33d 34bd 307c bfbb
00000010: 4be7 82bd cc44 4ebc 8fa7 3abc f19c 6ebd
00000020: 7f83 2cbd c5f6 9f3b 0af7 2bbd 786c 7dbd
00000030: f0a5 1bbc 3668 593d 6379 75bd 2b16 23bd
00000040: 7f51 03bd c806 b3bb e3bf b63c 06fc 9cbb
00000050: b44b 283d 2977 9bbd 9b55 c93c 4104 203d
00000060: e628 df3c ccae 99bd c677 153c ef8f 15bd
00000070: 04eb dbbc 69e4 3dbd 26c6 163d 7a9d 81bc
00000080: 747b 783c 42a3 90bc 49bb 37bd 3c72 6fbd
00000090: 68fb 933a 5eca 2abd 93a3 36bd 5905 e9bc
000000a0: 390b 89bc 988e 5bbd 5e6e 153d 970b 9dbd
000000b0: 00f4 183d f144 0dbd 4d7b 1dba e7b1 88bc
000000c0: 1525 9abd 6fd2 5cbc 5cf5 a3bc 0516 4b3d
000000d0: d6bf 213d 43ef 46bd c9bc 7abd 0281 e7bc
000000e0: 6042 613d 89c9 50bd 599e 8bbd 3714 c2bc
000000f0: 87e8 dc3c 2b7c 73bb 9faa 4bbd cddd 86bd
00000100: f505 d13b d313 c43c 7605 a139 e90a 483d
00000110: f885 a33c 3e02 2bbd b213 543d 7c7b d43c
00000120: c477 153c cf58 d0bc 7817 5cbd 9411 803c
00000130: 8417 52bd 2ecd 25bd 7db8 113d a2c6 5ebc
00000140: 05a0 18bd 8ea4 7bbd 7c59 183d 5296 cb3c
00000150: 1d20 613d 23a8 1a3c 3cf1 bb3c 7fc8 40bd
00000160: 2781 d13b 3b9e cb3c 5ab3 35bb 03b3 943c
00000170: 2432 37bd b64e 13bd 1349 8a3c 654c c1bb
00000180: 56cd 48bb d203 343d e300 783d 1ff9 853d
00000190: 034b 7d3d 921b f5bc 4588 37bd 5852 fcbc
000001a0: 187c 073d 10b5 16bc 9ccd 24bd b8cc b8ba
000001b0: dcb8 f0bc cbb3 933c dd27 0e3d a553 19bd
000001c0: 1f52 ca3c e943 7dbd deed b3bb 38c3 c2bc
000001d0: ced6 7dbb 3f62 7d3d 8449 263d f59a c13c
000001e0: b20e 00bd 02e9 0abc 32a0 92bd 4bf6 693d
000001f0: 1114 f1bb f797 99bd cd6e 4dbd 1270 2abc
00000200: b48e 653d 789c 103d 675f 47bc d0d8 363d
00000210: d806 56bc 96a4 b4bc a8c7 8a3c 040a 1ebd
00000220: 205f 2e3d d0ff ee3c ab7a 82bd 836b 073d
00000230: 862c 98bc 6401 13bd c1ba ae3c 525c f8bc
00000240: df0a 853d 326d 3a3d ec33 41bd 60c3 94bd
00000250: a5f9 30bd 308b 5cbd 10e4 fd3c c046 55bd
00000260: 63ba 36bd 70c6 503c 7ad3 0fbc 9cbe aebb
00000270: dc59 e13b 1f2a db3c 967f af3c 16d3 62bd
00000280: 1d92 61bd 5dd0 103c 0d2c 8dbd 2559 8cbd
00000290: 7bff 98bd b0fe 95bd 5195 87bd e8b5 6f3b
000002a0: 1781 56bd 65ca 8dbd b71c 483d da73 bd3c
000002b0: e7ad 013d 253a 183d c706 1b3d e085 d6bc
000002c0: ab8d 32bc 779d f1bc 413b 90bd 4d32 493c
000002d0: 3810 103d ce35 223d 7f2f 98bd eb0f 173d
000002e0: 32e1 833b fbde 023d a919 cb3c 21c1 41bd
000002f0: e6f6 f03c 6e6f 793c 381c cf3c dca7 77bd
00000300: 8df5 29bd d52e a0bc 13a9 f13c f563 90bd
00000310: f49e 47bc aaac 2ebd 2a87 0c3d 9fb9 45bd
00000320: 4c26 3bbd 41f1 7abd 353d f1bc c470 21bc
00000330: 8b14 013d 332c 79bd da69 373d 2647 df3b
00000340: 0a1e b43c f890 213d ba55 2d39 96ba 3ebc
00000350: 6d3e 36bd 9496 67bd a991 33bd 5e2a 2f3d
00000360: 567d 50bc d090 0fbd 2ccb 99bd 3908 92bd
00000370: 0d30 6bbd 2931 583d 48be d8bc 9069 80bd
00000380: 8c87 8a3c 368c 78bd aa74 803d a377 f73c
00000390: 9a19 d539 812d 23bd b86e 85bd 23eb e9bc
000003a0: 7822 d3bb ef3a 05bc 448f 80bd 12e1 0dbc
000003b0: de66 92bc 69ee 4fbd a309 38bd ce16 e1bb
000003c0: 78ac 53bd bc56 adbb 9d0d 823d 1694 b23c
000003d0: 1ff2 c43c 6726 a639 b7c2 82bd bc83 343c
000003e0: 09a7 c7bc bcab ccbc bd23 eb3b 852e 823c
000003f0: 7d07 fabc 92c4 b53c 1835 35bd 74b8 e53c

encoder.0.1.bias f4 [3]
0.04474325 -0.3923427 -0.022100743
00000000: b344 373d 24e1 c8be 9e0c b5bc

decoder.0.0.weight f4 [3, 1, 15, 15]
0.041766208 0.039070077 0.01916392 -0.016517736 -0.042968504 -0.021163974 0.0352422 -0.043296244
0.027126433 0.03263542 0.052848555 0.06380067 -0.03002566 -0.05148151 -0.06426542 0.02595095
0.01694472 0.038406786 -0.033283863 0.035896186 0.05887171 0.053969514 0.037916765 0.056744404
0.05810362 0.057672717 0.045665506 -0.051617697 -0.021662483 -0.020529995 -0.02208411 0.04467539
0.02687885 0.04160603 0.061475813 0.01624156 -0.027479013 -0.029794512 -0.0061676027 0.052615043
-0.013834851 0.016611053 -0.041585885 -0.020283017 -0.058229562 0.035929747 -0.06614038 -0.0046048006
0.024794206 0.0051575266 0.027442759 -0.049911566 0.055542473 0.052990567 -0.036521785 0.06492831
-0.011026796 0.058875557 0.05112546 0.027325425 0.049286112 -0.01709338 0.025615066 0.01649705
-0.05198738 -0.06293175 0.034086935 -0.041260872 -0.052153256 -0.02697584 -0.03645136 -0.035107385
0.038156234 0.04468408 0.06425506 0.03132834 -0.007980895 0.0061638835 -0.005008205 0.04060491
0.054544594 0.0041878065 0.008440916 -0.024104064 -0.03224436 -0.059717786 0.04783572 -0.03572832
-0.03905957 0.05484947 0.052213904 0.059168804 -0.004866656 0.0083890045 0.009271463 0.04601242
-0.056499507 0.02822649 -0.0037336352 -0.0618549 -0.042727243 -0.055106986 -0.035814486 0.05625545
-0.013485337 -0.0018764735 0.026842706 -0.052854255 0.04810912 -0.023263622 0.020943778 0.055176985
-0.053188622 -0.04183741 0.06625601 0.041419175 0.011793932 -0.03951862 0.022785284 -0.0077332896
-0.031944394 0.031032 -0.062277067 -0.030873857 0.056541637 0.06416309 -0.0005283515 -0.0612663
-0.0379586 -0.0073784357 -0.062178686 -0.05913667 -0.028641447 0.003220312 -0.049908593 -0.006805595
-0.037979286 0.035453003 -0.0018994809 -0.009888547 -0.056193855 -0.01959103 0.03119538 0.020291233
0.024446957 -0.048217833 -0.04427756 0.06419494 -0.012491545 -0.058346562 0.039285265 0.03168556
-0.06459757 0.04797482 -0.03383512 -0.021770542 0.017941158 0.042263675 -0.020559464 -0.020289168
-0.021783615 0.049378023 -0.046472553 0.0014412006 -0.026104284 -0.057638146 -0.021106785 -0.06064571
-0.03648457 0.015347243 -0.04053143 0.06011999 0.058593698 -0.028543402 0.01913372 0.011855802
0.019292627 -0.044655252 0.014411116 0.052536156 -0.057829995 0.04551353 -0.037447184 -0.036042206
0.009639312 0.020918362 -0.009279482 -0.0019470772 -0.0017336131 0.018294422 -0.046200562 -0.010516223
-0.035984766 -0.03508862 0.06389949 0.05701601 0.019790897 0.04998636 -0.025458822 -0.056674212
-0.016198764 -0.027653012 0.04276685 -0.032380726 0.01085353 0.014617984 -0.05378702 -0.008484626
-0.011024889 -0.03272691 -0.06435621 -0.059520263 -0.044362318 0.06520781 -0.06120474 0.061226808
-0.01082689 -0.04046238 -0.022841407 -0.010548449 -0.0625357 0.02000734 0.061677523 -0.062143113
0.00956103 -0.0096764965 -0.06105076 0.06637189 -0.036497816 0.06460182 0.04380413 -0.052317422
0.04503578 0.026339859 -0.014338931 0.029725697 0.0605953 -0.027727613 -0.014263869 -0.0068856245
-0.055446 0.053424273 -0.041515123 0.01934271 0.016559158 0.05058543 0.04963596 0.048560336
-0.04727374 -0.04371572 -0.048702933 -0.05009855 -0.0021439632 0.04310206 -0.03177774 -0.01839699
00000000: 0b13 2b3d f207 203d a7fd 9c3c 3450 87bc
00000010: beff 2fbd 1260 adbc 205a 103d 6757 31bd
00000020: 4138 de3c b8ac 053d ba77 583d eda9 823d
00000030: 5ff8 f5bc 47de 52bd 979d 83bd 1697 d43c
00000040: a7cf 8a3c 6f50 1d3d a954 08bd e107 133d
00000050: 7623 713d 230f 5d3d 9c4e 1b3d d26c 683d
00000060: 10fe 6d3d 3a3a 6c3d c10b 3b3d 146d 53bd
00000070: 8575 b1bc 852e a8bc bce9 b4bc 8bfd 363d
00000080: 0931 dc3c 166b 2a3d 10ce 7b3d 050d 853c
00000090: ab1b e1bc 9f13 f4bc 9a19 cabb df82 573d
000000a0: 92ab 62bc e713 883c f655 2abd 9228 a6bc
000000b0: 1f82 6ebd 122b 133d 9c74 87bd dee3 96bb
000000c0: 381d cb3c 7800 a93b a3cf e03c 1270 4cbd
000000d0: 8180 633d a30c 593d de97 15bd 22f9 843d
000000e0: bca9 34bc 7f27 713d ee68 513d 92d9 df3c
000000f0: 3ce0 493d 6b07 8cbc b0d6 d13c d224 873c
00000100: b8f0 54bd 5de2 80bd be9e 0b3d 2901 29bd
00000110: a79e 55bd 70fc dcbc 054e 15bd c3cc 0fbd
00000120: b649 1c3d a706 373d 2898 833d 2552 003d
00000130: 4dc2 02bc 67fa c93b de1b a4bb 5651 263d
00000140: 276a 5f3d de39 893b c54b 0a3c e375 c5bc
00000150: a912 04bd a39a 74bd 63ef 433d dc57 12bd
00000160: edfc 1fbd d6a9 603d 3fde 553d fd5a 723d
00000170: 7878 9fbb 0972 093c 56e7 173c 8577 3c3d
00000180: 076c 67bd 3d3b e73c 01b0 74bb 905b 7dbd
00000190: c302 2fbd ddb7 61bd 36b2 12bd 1d6c 663d
000001a0: 9af1 5cbc 01f4 f5ba 3ce5 db3c b47d 58bd
000001b0: 120e 453d 5a93 bebc 4992 ab3c 4301 623d
000001c0: 50dc 59bd b45d 2bbd 3bb1 873d 27a7 293d
000001d0: 563b 413c 47de 21bd 34a8 ba3c 8967 fdbb
000001e0: 20d8 02bd d236 fe3c 3d16 7fbd 2ceb fcbc
000001f0: 3498 673d f067 833d 1281 0aba 5ff2 7abd
00000200: 7a7a 1bbd cec6 f1bb 14af 7ebd 4b39 72bd
00000210: 78a1 eabc df0b 533b f46c 4cbd 7801 dfbb
00000220: 2b90 1bbd 2b37 113d 01f8 f8ba 9203 22bc
00000230: 872b 66bd 5e7d a0bc 748d ff3c cd39 a63c
00000240: fc44 c83c 1080 45bd 635c 35bd a378 833d
00000250: 56a9 4cbc cefc 6ebd 96e9 203d b8c8 013d
00000260: bb4b 84bd 3f81 443d b296 0abd 2358 b2bc
00000270: 56f9 923c ad1c 2d3d 526c a8bc 7835 a6bc
00000280: 8d73 b2bc 9c40 4a3d 015a 3ebd abe6 bc3a
00000290: a7d8 d5bc fa15 6cbd 23e8 acbc a367 78bd
000002a0: d870 15bd 0173 7b3c 4904 26bd 6140 763d
000002b0: f2ff 6f3d dad3 e9bc 52be 9c3c d63e 423c
000002c0: 920b 9e3c 6de8 36bd 9a1c 6c3c 2730 573d
000002d0: 25df 6cbd 656c 3a3d 3862 19bd fea0 13bd
000002e0: 34ee 1d3c fc5c ab3c f808 18bc 1235 ffba
000002f0: 673a e3ba 2fde 953c cd3c 3dbd 3c4c 2cbc
00000300: c364 13bd 16b9 0fbd bcdd 823d 9f89 693d
00000310: 8520 a23c 7fbe 4c3d 058f d0bc 3823 68bd
00000320: 45b3 84bc 9288 e2bc 4b2c 2f3d a7a1 04bd
00000330: 01d3 313c 4580 6f3c c74f 5cbd 1a03 0bbc
00000340: bca1 34bc a70c 06bd 30cd 83bd 85cb 73bd
00000350: 43b5 35bd ac8b 853d d2b1 7abd f6c8 7a3d
00000360: 4563 31bc e1bb 25bd e71d bbbc 67d3 2cbc
00000370: b812 80bd 6fe6 a33c 92a1 7c3d c789 7ebd
00000380: dea5 1c3c 2b8a 1ebc 5d10 7abd fced 873d
00000390: bc7e 15bd f64d 843d f66b 333d cb4a 56bd
000003a0: 7077 383d b0c6 d73c d6ed 6abc 4e83 f33c
000003b0: c732 783d 0525 e3bc 01b3 69bc cea0 e1bb
000003c0: 581b 63bd 69d3 5a3d c30b 2abd 9a74 9e3c
000003d0: 12a7 873c ab32 4f3d 144f 4b3d 34e7 463d
000003e0: 1ca2 41bd 410f 33bd ba7c 47bd 2334 4dbd
000003f0: bc81 0cbb c98b 303d 6029 02bd 49b5 96bc
